Results are saved in:  Results_fold1

Initialize datasets...
Found device:  1 x  cuda
ncpu=48
Reading files from:  data_cross_val/data_fold_1
Initialize dataloaders...
Datoladers are ready..
ViTMiL(
  (vit): DinoVisionTransformer(
    (patch_embed): PatchEmbed(
      (proj): Conv2d(3, 768, kernel_size=(14, 14), stride=(14, 14))
      (norm): Identity()
    )
    (blocks): ModuleList(
      (0-11): 12 x NestedTensorBlock(
        (norm1): LayerNorm((768,), eps=1e-06, elementwise_affine=True)
        (attn): MemEffAttention(
          (qkv): Linear(in_features=768, out_features=2304, bias=True)
          (attn_drop): Dropout(p=0.0, inplace=False)
          (proj): Linear(in_features=768, out_features=768, bias=True)
          (proj_drop): Dropout(p=0.0, inplace=False)
        )
        (ls1): LayerScale()
        (drop_path1): Identity()
        (norm2): LayerNorm((768,), eps=1e-06, elementwise_affine=True)
        (mlp): Mlp(
          (fc1): Linear(in_features=768, out_features=3072, bias=True)
          (act): GELU(approximate='none')
          (fc2): Linear(in_features=3072, out_features=768, bias=True)
          (drop): Dropout(p=0.0, inplace=False)
        )
        (ls2): LayerScale()
        (drop_path2): Identity()
      )
    )
    (norm): LayerNorm((768,), eps=1e-06, elementwise_affine=True)
    (head): Identity()
  )
  (transformer): Transformer(
    (projection): Sequential(
      (0): Linear(in_features=768, out_features=512, bias=True)
      (1): ReLU()
    )
    (transformer): TransformerBlocks(
      (layers): ModuleList(
        (0-1): 2 x ModuleList(
          (0): PreNorm(
            (fn): Attention(
              (attend): Softmax(dim=-1)
              (to_qkv): Linear(in_features=512, out_features=1536, bias=False)
              (to_out): Sequential(
                (0): Linear(in_features=512, out_features=512, bias=True)
                (1): Dropout(p=0.1, inplace=False)
              )
            )
            (norm): LayerNorm((512,), eps=1e-05, elementwise_affine=True)
          )
          (1): PreNorm(
            (fn): FeedForward(
              (net): Sequential(
                (0): Linear(in_features=512, out_features=512, bias=True)
                (1): GELU(approximate='none')
                (2): Dropout(p=0.1, inplace=False)
                (3): Linear(in_features=512, out_features=512, bias=True)
                (4): Dropout(p=0.1, inplace=False)
              )
            )
            (norm): LayerNorm((512,), eps=1e-05, elementwise_affine=True)
          )
        )
      )
    )
    (norm): LayerNorm((512,), eps=1e-05, elementwise_affine=True)
    (dropout): Dropout(p=0.1, inplace=False)
  )
  (mlp): Sequential(
    (0): LayerNorm((512,), eps=1e-05, elementwise_affine=True)
    (1): Linear(in_features=512, out_features=64, bias=True)
    (2): ReLU()
    (3): Linear(in_features=64, out_features=7, bias=True)
  )
)
Setup complete.

Using ReduceLROnPlateau with loss
Starting training
- ep: 1/50, loss: 1.747, acc: 0.344, f1_macro: 0.262, 3001s, train
- ep: 1/50, loss: 1.625, acc: 0.349, f1_macro: 0.290, 908s, val
Best Loss!
- ep: 2/50, loss: 1.546, acc: 0.404, f1_macro: 0.225, 2714s, train
- ep: 2/50, loss: 1.455, acc: 0.460, f1_macro: 0.306, 942s, val
Best Loss!
…
