
Initialize datasets...
Found device:  1 x  cuda:0
ncpu=128
Initialize dataloaders...
Datoladers are ready..
ViTMiL(
  (vit): DinoVisionTransformer(
    (patch_embed): PatchEmbed(
      (proj): Conv2d(3, 768, kernel_size=(14, 14), stride=(14, 14))
      (norm): Identity()
    )
    (blocks): ModuleList(
      (0-11): 12 x NestedTensorBlock(
        (norm1): LayerNorm((768,), eps=1e-06, elementwise_affine=True)
        (attn): MemEffAttention(
          (qkv): Linear(in_features=768, out_features=2304, bias=True)
          (attn_drop): Dropout(p=0.0, inplace=False)
          (proj): Linear(in_features=768, out_features=768, bias=True)
          (proj_drop): Dropout(p=0.0, inplace=False)
        )
        (ls1): LayerScale()
        (drop_path1): Identity()
        (norm2): LayerNorm((768,), eps=1e-06, elementwise_affine=True)
        (mlp): Mlp(
          (fc1): Linear(in_features=768, out_features=3072, bias=True)
          (act): GELU(approximate='none')
          (fc2): Linear(in_features=3072, out_features=768, bias=True)
          (drop): Dropout(p=0.0, inplace=False)
        )
        (ls2): LayerScale()
        (drop_path2): Identity()
      )
    )
    (norm): LayerNorm((768,), eps=1e-06, elementwise_affine=True)
    (head): Identity()
  )
  (transformer): Transformer(
    (projection): Sequential(
      (0): Linear(in_features=768, out_features=512, bias=True)
      (1): ReLU()
    )
    (transformer): TransformerBlocks(
      (layers): ModuleList(
        (0-1): 2 x ModuleList(
          (0): PreNorm(
            (fn): Attention(
              (attend): Softmax(dim=-1)
              (to_qkv): Linear(in_features=512, out_features=1536, bias=False)
              (to_out): Sequential(
                (0): Linear(in_features=512, out_features=512, bias=True)
                (1): Dropout(p=0.1, inplace=False)
              )
            )
            (norm): LayerNorm((512,), eps=1e-05, elementwise_affine=True)
          )
          (1): PreNorm(
            (fn): FeedForward(
              (net): Sequential(
                (0): Linear(in_features=512, out_features=512, bias=True)
                (1): GELU(approximate='none')
                (2): Dropout(p=0.1, inplace=False)
                (3): Linear(in_features=512, out_features=512, bias=True)
                (4): Dropout(p=0.1, inplace=False)
              )
            )
            (norm): LayerNorm((512,), eps=1e-05, elementwise_affine=True)
          )
        )
      )
    )
    (norm): LayerNorm((512,), eps=1e-05, elementwise_affine=True)
    (dropout): Dropout(p=0.1, inplace=False)
  )
  (mlp): Sequential(
    (0): LayerNorm((512,), eps=1e-05, elementwise_affine=True)
    (1): Linear(in_features=512, out_features=64, bias=True)
    (2): ReLU()
    (3): Linear(in_features=64, out_features=7, bias=True)
  )
)
Starting inferring
Processing patient:  MLL_182195
Processing patient:  MLL_192104
Processing patient:  MLL_201433
Processing patient:  MLL_184573
Processing patient:  MLL_232781
Processing patient:  MLL_240988
Processing patient:  MLL_241021
Processing patient:  MLL_194850
Processing patient:  MLL_208069
Processing patient:  MLL_240996
Processing patient:  MLL_232106
…
